submissions/aguerouani/predator_model.pth (torch, 154613 bytes, 6 tensors)

policy_net.0.weight f4 [256, 16]
0.13378435 -0.0238166 0.040425573 -0.057263426 0.008636038 -0.049274616 -0.0046530054 0.015142177
0.09762993 -0.04066758 -0.1227797 -0.07565299 0.18479478 0.0032877843 0.039881002 0.08981417
-0.17912427 0.14976546 -0.047491338 -0.005197265 -0.057343118 0.13232227 -0.022086427 -0.07541153
0.03942142 0.056765795 -0.030297289 -0.122534424 0.057454422 0.2651674 -0.0854469 0.027125055
-0.15398063 -0.059114896 0.101529606 -0.07800665 -0.032169 -0.0016763753 -0.07108358 -0.1004549
0.07595541 -0.05056138 0.03162208 -0.11729398 0.21544458 0.0141738625 -0.24075124 -0.17402543
-0.07159704 0.23936316 0.22407413 0.13549906 -0.057579994 0.14760308 0.02146393 -0.10831792
0.13404587 -0.08358955 0.0414738 -0.05953628 0.19286737 -0.16203971 0.040829357 -0.11094029
0.04458684 -0.057552442 -0.023843499 0.06364802 -0.0932335 0.040161926 0.05026424 -0.14778346
-0.02203566 0.041440386 -0.2431912 0.091674626 -0.59214103 0.19970408 -0.016594894 0.070884
0.1719824 0.00963555 0.0008821605 0.13766004 0.052161425 -0.012497374 0.078537755 -0.1386129
0.017781956 -0.24061395 -0.10292678 0.1411872 0.20498936 0.34218952 -0.12161069 0.10387385
0.0024455816 0.247807 0.1291329 0.16846886 -0.07873348 -0.003403886 0.15513223 -0.012817807
0.113695934 0.119147405 -0.0134357065 -0.036561653 0.07619899 -0.118237466 0.071529664 -0.13673802
-0.10652779 0.039699562 0.15185857 0.016085314 -0.043576043 -0.058485832 -0.11718413 0.017098041
0.10347007 -0.05543925 0.03587157 -0.12610123 -0.0320563 -0.4087264 -0.236847 0.013799844
-0.10292933 0.26390135 -0.017241655 0.03805025 0.06437826 -0.08116105 0.036605783 -0.11436457
0.0135183325 0.0032115346 0.012167456 0.07840215 0.40687987 0.03781291 -0.027256606 -0.053298455
-0.20661563 -0.043715835 -0.06306683 -0.03567695 -0.0071298284 -0.0038984416 0.14323634 -0.12698893
-0.03601511 0.06689553 0.035560787 0.097932965 -0.106776506 0.29350907 0.044579625 0.056029588
-0.1406966 -0.046706364 -0.031397663 -0.06006726 -0.12519105 0.25243312 -0.023103906 0.04666694
0.056715474 -0.027856125 0.14772417 0.1349029 0.06494324 0.27452675 0.01920092 -0.23151289
0.04434653 0.024534166 -0.048459325 -0.042104166 0.08831632 -0.04398794 -0.042242687 0.25640547
-0.07632167 -0.0029949998 -0.12672508 0.039876282 0.13685228 0.009466065 0.12710814 0.07859295
0.052777436 0.069673225 0.07018664 0.16304976 0.001412589 0.093384586 -0.01640934 -0.046874326
0.05622522 0.019162353 -0.160521 -0.06355432 0.2104281 0.068039834 0.0418671 0.0389172
0.38203374 -0.07128138 -0.10715763 -0.1503444 0.19510129 0.07649161 -0.13763626 -0.11402703
-0.105256185 -0.008356653 -0.10676803 -0.012911333 -0.22007895 -0.12851213 -0.29154623 -0.16104738
0.21044004 0.13705906 -0.08208879 0.14698468 -0.11771359 0.0072469832 -0.034859326 -0.07360983
0.11140917 0.2095733 -0.14748168 0.060019463 -0.07024569 0.5467907 0.06359053 0.18399377
-0.18822522 -0.0921631 0.14547473 -0.056955088 -0.18722498 -0.019141369 0.024742568 -0.06037658
0.013186688 0.024993787 0.05668546 0.14703012 -0.23965812 -0.34084296 0.115658656 -0.13193324
00000000: c4fe 083e 081b c3bc 4995 253d 0e8d 6abd
00000010: 2b7e 0d3c 2ed4 49bd 3d78 98bb e516 783c
00000020: 33f2 c73d 0c93 26bd ec73 fbbd f4ef 9abd
00000030: d83a 3d3e de77 573b 435a 233d 7ef0 b73d
00000040: 5a6c 37be 1e5c 193e 4786 42bd d24d aabb
00000050: 9ee0 6abd 7d7f 073e 98ee b4bc 5c71 9abd
00000060: 5b78 213d 4083 683d 0532 f8bc 54f3 fabd
00000070: 5455 6b3d 05c4 873e c9fe aebd 5d35 de3c
00000080: 19ad 1dbe 7622 72bd c1ee cf3d f3c1 9fbd
00000090: a4c3 03bd d2b9 dbba 4594 91bd 4cbb cdbd
000000a0: 838e 9b3d 7319 4fbd 2786 013d d437 f0bd
000000b0: 819d 5c3e 7d39 683c 7e87 76be b933 32be
000000c0: 78a1 92bd 9e1b 753e b073 653e 44c0 0a3e
000000d0: 00d9 6bbd 4325 173e 20d5 af3c c9d5 ddbd
000000e0: 5243 093e ff30 abbd 6ee0 293d 50dc 73bd
000000f0: 067f 453e bded 25be af3c 273d aa34 e3bd
00000100: b1a0 363d 1cbc 6bbd 7153 c3bc e559 823d
00000110: 35f1 bebd d580 243d e0e1 4d3d 8c54 17be
00000120: 2184 b4bc 65bd 293d 1d07 79be e8bf bb3d
00000130: 8e96 17bf 3a7f 4c3e 04f2 87bc a12b 913d
00000140: 271c 303e 6dde 1d3c ca40 673a c1f6 0c3e
00000150: 38a7 553d c9c1 4cbc 67d8 a03d 8af0 0dbe
00000160: 77ab 913c 8163 76be 47cb d2bd 6193 103e
00000170: bbe8 513e 7733 af3e 070f f9bd d0bb d43d
00000180: 0d46 203b 1ec1 7d3e 6a3b 043e 1a83 2c3e
00000190: 053f a1bd bb13 5fbb fcda 1e3e c701 52bc
000001a0: 6ad9 e83d 8e03 f43d 7021 5cbc acc1 15bd
000001b0: 370e 9c3d 7c26 f2bd 257e 923d 0d05 0cbe
000001c0: 3e2b dabd 029c 223d d080 1b3e 59c5 833c
000001d0: cb7c 32bd d78e 6fbd 3cfe efbd 3111 8c3c
000001e0: 1ee8 d33d 4414 63bd 11ee 123d ae20 01be
000001f0: 784d 03bd 9644 d1be 0588 72be be18 623c
00000200: 9dcc d2bd 141e 873e 5f3e 8dbc 94da 1b3d
00000210: c0d8 833d c437 a6bd f2ef 153d f937 eabd
00000220: ff7b 5d3c 9c78 523b 025a 473c 4e91 a03d
00000230: 8f52 d03e b6e1 1a3d 3f49 dfbc 7b4f 5abd
00000240: 0c93 53be 600f 33bd 2f29 81bd fe21 12bd
00000250: 56a1 e9bb ff7c 7fbb 8cac 123e 6309 02be
00000260: 9484 13bd 8600 893d 30a8 113d 1491 c83d
00000270: a4ad dabd d246 963e 2099 363d 487f 653d
00000280: c512 10be 2c4f 3fbd d69a 00bd 1609 76bd
00000290: 1532 00be ea3e 813e 6744 bdbc d525 3f3d
000002a0: 7c4e 683d 8732 e4bc 0145 173e fc23 0a3e
000002b0: f600 853d c58e 8c3e 3f4b 9d3c b711 6dbe
000002c0: b5a4 353d e0fb c83c 497d 46bd 6b75 2cbd
000002d0: 30df b43d b32c 34bd ab06 2dbd 9447 833e
000002e0: 894e 9cbd c247 44bb 38c4 01be 5055 233d
000002f0: 0123 0c3e 8e17 1b3c a328 023e 57f5 a03d
00000300: 272d 583d d6b0 8e3d 03be 8f3d 84f6 263e
00000310: 9f26 b93a 6b40 bf3d e16c 86bc 4bff 3fbd
00000320: 6b4c 663d 5efa 9c3c 9e5f 24be c428 82bd
00000330: 777a 573e 7858 8b3d d67c 2b3d a467 1f3d
00000340: ed99 c33e f9fb 91bd 7675 dbbd e2f3 19be
00000350: a2c8 473e a2a7 9c3d 85f0 0cbe 0187 e9bd
00000360: 8e90 d7bd 58ea 08bc 32a9 dabd 0e8a 53bc
00000370: 605c 61be af98 03be 8c45 95be 9be9 24be
00000380: 987d 573e 3659 0c3e 2b1e a8bd 2783 163e
00000390: d313 f1bd 1a78 ed3b a7c8 0ebd c0c0 96bd
000003a0: 7e2a e43d 629a 563e 7005 17be f8d6 753d
000003b0: f9dc 8fbd 7afa 0b3f c03b 823d dd68 3c3e
000003c0: 1dbe 40be 02c0 bcbd 54f7 143e bd49 69bd
000003d0: e8b7 3fbe 5cce 9cbc edb0 ca3c 6f4d 77bd
000003e0: fa0c 583c c5bf cc3c 032f 683d 108f 163e
000003f0: f068 75be f882 aebe 72de ec3d 8219 07be

policy_net.0.bias f4 [256]
0.008364511 0.02128779 0.042890716 -0.0038274252 0.0118447635 -0.058680035 0.051354337 -0.030728394
0.06868278 -0.020301988 0.048545323 0.028207099 -0.028937694 -0.06241438 0.026566545 -0.0005776646
0.02175838 0.042808138 -0.00807005 -0.006055981 -0.008522762 -0.012481843 0.008118098 -0.022446223
0.009132136 -0.026972804 0.011794452 0.012767258 -0.06298629 0.0122354785 -0.02682137 0.020552695
-0.022095323 0.040094785 0.055871226 -0.023655133 0.02797855 -0.0060342266 -0.049562693 -0.05634803
0.03356096 0.018906552 0.018978063 -0.0126067195 0.0053331363 0.00903882 0.02961127 -0.03505539
-0.04505125 -0.025344033 0.026139354 -0.062277965 -0.042689923 -0.042272132 -0.015388081 0.021351602
0.019295063 -0.019231033 0.054440267 0.009683882 -0.04241069 0.05265493 0.0031127422 -0.011316011
0.0056900913 0.00095309416 0.011398785 0.029598454 0.045237117 -0.019891495 -0.0653106 -0.016339077
0.0071429196 -0.029455775 -0.0011561025 0.025753133 0.0027540142 -0.043938417 -0.012585422 -0.020124746
-0.02514403 -0.009546502 0.023231352 -0.02056511 -0.05786658 -0.010710314 -0.06495432 -0.03156338
0.0011919816 -0.026622893 -0.005311278 -0.0061447113 -0.032325268 -0.049237855 0.048661314 -0.042677056
-0.049597714 0.04707442 0.031047322 -0.02689835 -0.016395722 -0.039893642 0.0039875316 -0.04451355
0.01566393 0.027419655 -0.01476981 0.059230164 0.05411717 0.06922934 0.0024486117 0.052293207
-0.023111368 0.030775128 -0.023464661 0.029324085 -0.06341554 -0.036193408 0.024501968 0.03913634
0.037573487 0.01919316 -0.03127134 0.013318592 -0.011418684 0.0009801631 0.020261481 -0.026529403
-0.021265583 0.0041103167 0.037747525 -0.06326893 0.0015360847 0.000497614 0.011395488 -0.040217485
-0.047434703 0.018176207 -0.03569454 -0.05043765 -0.027399924 0.0356745 -0.03132226 -0.008820585
0.020631794 0.032273095 -0.031656396 -0.030561756 0.04873223 -0.0628412 0.040248636 -0.07728016
-0.03793218 -0.049954962 -0.0078003057 0.014208536 0.037734892 -0.018215135 -0.04620139 -0.013124079
-0.01889064 -0.005938518 0.023081433 -0.035710584 0.019021047 0.008475807 -0.013889835 0.048909113
0.044553347 -0.019122258 0.06261959 -0.019838672 -0.016117401 0.020250186 0.0005896119 -0.01613979
0.024422202 -0.040550463 0.004605613 0.05332914 0.014144678 0.07963232 -0.02075823 0.030082649
0.007349021 -0.03621792 0.013571054 -0.02580127 -0.029134858 -0.016513653 -0.01856518 -0.01889545
-0.013330325 -0.005800564 -0.027493352 0.0057938625 -0.012307625 -0.009662561 0.031687427 0.011567652
-0.0027628995 -0.01365187 -0.004545153 0.010359935 -0.052476235 0.027590616 -0.018636126 0.007600918
0.0077839447 -0.03189072 -0.00800386 -0.01324313 0.034251127 0.008619025 0.021124102 0.0012745856
-0.032237366 0.045828924 -0.004059144 0.047255613 0.02436602 0.02987981 -0.047358118 -0.096217
0.014502343 -0.0045503248 -0.0006319209 0.02624361 0.054715764 0.007342158 0.028235724 0.009936956
-0.020879855 0.030898355 0.01480004 -0.013537399 0.004142672 -0.017472453 -0.0066488837 0.025765711
0.047749225 -0.031444974 0.068747886 0.0049478095 0.0053248648 -0.011112666 -0.006413662 -0.0046374495
-0.029584631 -0.011489174 0.03880274 0.03552325 -0.0022445454 -0.050267413 0.0075626783 -0.03664769
00000000: 4d0b 093c bb63 ae3c 2dae 2f3d 8ad5 7abb
00000010: 8a10 423c 7a5a 70bd ed58 523d 1dba fbbc
00000020: 8fa9 8c3d 5b50 a6bc 76d7 463d 9312 e73c
00000030: be0e edbc 39a6 7fbd 15a2 d93c 6a6e 17ba
00000040: a13e b23c 9657 2f3d 3e38 04bc 4071 c6bb
00000050: 0ea3 0bbc a580 4cbc c501 053c 24e1 b7bc
00000060: f49e 153c 12f6 dcbc 843d 413c c32d 513c
00000070: f5fe 80bd 5177 483c 7db8 dbbc 205e a83c
00000080: 4001 b5bc 6e3a 243d 3ad9 643d 69c8 c1bc
00000090: 4633 e53c c3ba c5bb 4002 4bbd 31cd 66bd
000000a0: 3877 093d eae1 9a3c e277 9b3c 6a8c 4ebc
000000b0: 97c1 ae3b 8f17 143c 5693 f23c 3e96 0fbd
000000c0: a987 38bd 4a9e cfbc 3322 d63c 2e17 7fbd
000000d0: a1db 2ebd 8b25 2dbd 4a1e 7cbc 8ee9 ae3c
000000e0: ae10 9e3c 668a 9dbc c2fc 5e3d 25a9 1e3c
000000f0: d5b6 2dbd b2ac 573d 26ff 4b3b ca66 39bc
00000100: f273 ba3b 11d9 793a f8c1 3a3c 7578 f23c
00000110: 8e4a 393d 7df3 a2bc 90c1 85bd 87d9 85bc
00000120: 270f ea3b 3d4d f1bc 5d88 97ba 3cf8 d23c
00000130: b17c 343b c5f8 33bd 1633 4ebc a7dc a4bc
00000140: dafa cdbc ee68 1cbc ad4f be3c 2978 a8bc
00000150: 8205 6dbd 507a 2fbc c506 85bd 9a48 01bd
00000160: 443c 9c3a 4118 dabc 3b0a aebb 9359 c9bb
00000170: 8067 04bd a2ad 49bd 1651 473d 23ce 2ebd
00000180: f926 4bbd 1bd1 403d f456 fe3c ee59 dcbc
00000190: 5250 86bc 8467 23bd d7a9 823b d753 36bd
000001a0: a451 803c 2f9f e03c 13fd 71bc 549b 723d
000001b0: f7a9 5d3d 1dc8 8d3d e378 203b 6731 563d
000001c0: 0d54 bdbc 1f1c fc3c f638 c0bc 1039 f03c
000001d0: 02e0 81bd 8a3f 14bd 5ab8 c83c 6d4d 203d
000001e0: a8e6 193d f93a 9d3c 6016 00bd 3936 5a3c
000001f0: 6f15 3bbc d178 803a 68fb a53c 3154 d9bc
00000200: 2935 aebc d6af 863b 269d 1a3d 2493 81bd
00000210: 7356 c93a 4f72 023a 24b4 3a3c 17bb 24bd
00000220: e44a 42bd 45e6 943c 7034 12bd b697 4ebd
00000230: ce75 e0bc 6d1f 123d c54b 00bd 3784 10bc
00000240: 0204 a93c cb30 043d 23aa 01bd a65c fabc
00000250: 729b 473d e3b2 80bd c1db 243d 0f45 9ebd
00000260: c65e 1bbd 939d 4cbd b599 ffbb ebca 683c
00000270: e78f 1a3d e837 95bc ab3d 3dbd 6106 57bc
00000280: 8bc0 9abc e697 c2bb 4615 bd3c 4345 12bd
00000290: 07d2 9b3c 1cde 0a3c 3192 63bc ec54 483d
000002a0: 927d 363d 48a6 9cbc b33e 803d b684 a2bc
000002b0: a408 84bc b8e3 a53c 2f90 1a3a 9837 84bc
000002c0: 1211 c83c 3e18 26bd afea 963b a86f 5a3d
000002d0: 14bf 673c 4516 a33d 2a0d aabc e36f f63c
000002e0: 0ed0 f03b 3e59 14bd 2059 5e3c 2f5d d3bc
000002f0: 3aac eebc a447 87bc 0116 98bc a1ca 9abc
00000300: 6f67 5abc a812 bebb bd39 e1bc 71da bd3b
00000310: eca5 49bc b84f 1ebc adca 013d 4086 3d3c
00000320: c311 35bb 18ac 5fbc 82ef 94bb b8bc 293c
00000330: 52f1 56bd b705 e23c caaa 98bc 1f11 f93b
00000340: 7610 ff3b d89f 02bd 9f22 03bc b7f9 58bc
00000350: e94a 0c3d d036 0d3c 740c ad3c ff0f a73a
00000360: 540b 04bd 1cb7 3b3d 9102 85bb 1a8f 413d
00000370: 3f9b c73c 81c6 f43c 96fa 41bd 6b0d c5bd
00000380: 3c9b 6d3c e41a 95bb 7ea7 25ba d7fc d63c
00000390: a31d 603d 7c96 f03b 9b4e e73c 9dce 223c
000003a0: 3b0c abbc 8c1e fd3c de7b 723c f7cb 5dbc
000003b0: 40bf 873b 6422 8fbc e1de d9bb 9d12 d33c
000003c0: b194 433d 72cc 00bd b1cb 8c3d 3c21 a23b
000003d0: 347c ae3b e611 36bc b229 d2bb bff5 97bb
000003e0: 785b f2bc 173d 3cbc 9fef 1e3d d480 113d
000003f0: 3919 13bb 34e5 4dbd 58d0 f73b e31b 16bd

policy_net.2.weight f4 [128, 256]
-0.08699218 0.19599542 0.11630544 -0.124593645 0.19312508 0.13911556 0.05814835 -0.018317122
-0.02720506 0.027411504 -0.16312172 -0.1262859 0.0074139866 -0.08252421 -0.12610047 0.02544071
0.1265676 0.07671768 0.10887712 0.06646269 -0.02201793 0.07165228 -0.048769716 -0.17807987
-0.047145825 0.0025617182 -0.07634436 0.071082436 0.02395807 -0.070774294 -0.06406431 0.07992878
-0.03969077 -0.039880294 -0.0365359 0.096290424 0.10730011 -0.09484554 -0.08622677 0.07418735
0.061443664 -0.025960198 -0.14070518 0.03954818 -0.025661798 -0.040582743 0.122189134 -0.041031566
0.06525896 0.08820624 -0.029175159 -0.0067811925 0.07092637 -0.023306787 -0.06097457 -0.037108444
-0.15981977 0.012590205 0.07319573 -0.21693467 -0.0442687 0.15772992 0.029630424 0.06736421
-0.087610625 -0.035441235 -0.08932367 -0.031029472 -0.060096927 0.1366514 0.04984312 -0.07911798
0.032658957 0.057658542 -0.007829597 0.16065004 -0.056611206 -0.124399975 -0.029308632 0.18793836
0.04382597 -0.15365979 -0.10508701 -0.051060658 -0.021299632 -0.14326318 0.0125736045 -0.08281347
-0.09652363 0.07478812 0.09163152 0.13752562 -0.006039748 0.065399006 -0.093270086 0.012372929
0.032811154 0.021769213 0.121769354 0.05358875 -0.04101174 0.16922882 0.04318927 -0.024628142
0.06850237 0.18166804 -0.014582303 0.014129052 0.022170076 -0.14975664 -0.079971336 -0.0013895357
-0.049597386 0.007119205 -0.0688994 0.10066968 0.099039644 -0.05653 -0.03243784 0.020937402
-0.015734447 0.28286144 0.15261209 0.022774735 0.13416061 0.044099566 0.17460477 0.043010194
0.06543277 -0.04733169 -0.1844937 0.027375836 -0.01969384 -0.109879956 -0.0538389 -0.15077482
0.11242619 0.027832987 0.031100994 0.014521164 0.00023575117 -0.14694493 0.1063319 -0.09144291
-0.006957389 0.13197133 -0.0613413 -0.033206657 -0.02874463 0.13340685 0.1427335 -0.035339866
-0.08678783 -0.05161827 -0.07751871 -0.07097664 0.011545834 0.0019668608 0.013902603 0.080368005
-0.026895514 -0.08140242 -0.053433858 0.026519941 0.034671526 0.13087703 0.0670538 -0.008976212
0.009112708 -0.020218851 0.040337197 0.035084117 0.04563835 0.21522336 0.032241963 -0.038805
-0.14203016 0.027041374 -0.12446118 0.1341786 -0.012194688 0.059267968 0.02935597 -0.092098884
0.09260435 0.033352956 -0.042264618 0.032325193 -0.045706958 -0.07600211 -0.019923609 -0.024073582
-0.11513676 0.066126145 -0.058405362 -0.1794206 -0.060834773 0.24046095 0.01918581 -0.08585872
0.02028351 -0.24758765 -0.015551595 0.08246619 -0.031249035 0.0012943362 -0.04131367 0.03664202
0.18236946 0.1663599 0.09298569 0.022295672 -0.03030146 0.01230643 0.053111214 -0.07653563
0.019520272 -0.012588804 -0.03133492 -0.13094518 0.1532187 0.10923162 0.022391303 -0.098158635
-0.082975134 0.054510932 0.007324465 -0.13284953 -0.23257186 0.0014889186 0.0077820304 0.054799035
0.1318856 -0.015123281 0.07044892 -0.027111823 -0.07878986 -0.13249063 0.089908205 -0.01318257
0.09457181 0.064655185 -0.04374738 -0.05800111 0.10137166 -0.020251865 -0.08881952 -0.03248696
0.18294688 -0.12539506 -0.16778989 -0.12008923 -0.066636525 0.03835706 0.10054427 -0.01637841
00000000: f528 b2bd 06b3 483e 8c31 ee3d f42a ffbd
00000010: 95c2 453e 4f74 0e3e f72c 6e3d ca0d 96bc
00000020: 25dd debc 178e e03c 6109 27be 1751 01be
00000030: 07f1 f23b 7402 a9bd 7b20 01be 0969 d03c
00000040: f09a 013e 291e 9d3d f8fa de3d 971d 883d
00000050: f25e b4bc 6ebe 923d c1c2 47bd 925a 36be
00000060: fb1b 41bd 80e2 273b 6f5a 9cbd ab93 913d
00000070: b743 c43c 1df2 90bd 2634 83bd b3b1 a33d
00000080: ca92 22bd 8559 23bd aba6 15bd ea33 c53d
00000090: 29c0 db3d 613e c2bd a997 b0bd 8aef 973d
000000a0: 5aac 7b3d 7baa d4bc 0515 10be 46fd 213d
000000b0: b138 d2bc 173a 26bd 4c3e fa3d b710 28bd
000000c0: 7da6 853d 79a5 b43d be00 efbc c434 debb
000000d0: d841 913d e0ed bebc 79c0 79bd 06ff 17bd
000000e0: cba7 23be 2647 4e3c a5e7 953d 1f24 5ebe
000000f0: 1953 35bd f483 213e 81bb f23c 3ff6 893d
00000100: 336d b3bd d42a 11bd 54ef b6bd 8531 febc
00000110: 3228 76bd 58ee 0b3e 4d28 4c3d 9c08 a2bd
00000120: 66c5 053d 5d2b 6c3d b647 00bc 7281 243e
00000130: 27e1 67bd 6ac5 febd a818 f0bc ea72 403e
00000140: dc82 333d fe58 1dbe dc37 d7bd fb24 51bd
00000150: 917c aebc 95b3 12be 8501 4e3c 1c9a a9bd
00000160: 2eae c5bd 842a 993d 4ea9 bb3d 84d3 0c3e
00000170: 14e9 c5bb eaef 853d 6304 bfbd d3b7 4a3c
00000180: fd64 063d 5955 b23c 3662 f93d e17f 5b3d
00000190: edfb 27bd 524a 2d3e 3be7 303d f5c0 c9bc
000001a0: f84a 8c3d 3007 3a3e 9dea 6ebc 8a7d 673c
000001b0: 059e b53c ce59 19be 03c8 a3bd 1521 b6ba
000001c0: a126 4bbd 3848 e93b 211b 8dbd e82b ce3d
000001d0: 4cd5 ca3d 008c 67bd 8add 04bd ea84 ab3c
000001e0: 87e5 80bc 37d3 903e 5846 1c3e 1592 ba3c
000001f0: 6661 093e bfa1 343d 98cb 323e 752b 303d
00000200: 9e01 863d e0de 41bd ebeb 3cbe 4a43 e03c
00000210: fa54 a1bc be08 e1bd 2e86 5cbd b764 1abe
00000220: b43f e63d 0102 e43c 83c7 fe3c 2dea 6d3c
00000230: f933 7739 bb78 16be 8ac4 d93d 6c46 bbbd
00000240: cffa e3bb 7e23 073e 0441 7bbd b403 08bd
00000250: dc79 ebbc ce9b 083e bb28 123e 89c0 10bd
00000260: d1bd b1bd ae6d 53bd 21c2 9ebd 335c 91bd
00000270: bd2a 3d3c 73e6 003b bec7 633c fb97 a43d
00000280: fb53 dcbc 50b6 a6bd 76dd 5abd 5940 d93c
00000290: bb03 0e3d a104 063e 8153 893d f610 13bc
000002a0: 784d 153c 01a2 a5bc 9e38 253d 5db4 0f3d
000002b0: 47ef 3a3d 8363 5c3e 2610 043d fef1 1ebd
000002c0: 5b70 11be df85 dd3c 81e5 febd 1d66 093e
000002d0: 3bcc 47bc f8c2 723d ee7b f03c 579e bcbd
000002e0: 59a7 bd3d 1c9d 083d aa1d 2dbd 6c67 043d
000002f0: 3837 3bbd ffa6 9bbd d636 a3bc f635 c5bc
00000300: d2cc ebbd 256d 873d 763a 6fbd 09ba 37be
00000310: e22d 79bd 653b 763e 8f2b 9d3c b2d6 afbd
00000320: 9b29 a63c 9e87 7dbe 1ecc 7ebc 09e4 a83d
00000330: fafd ffbc b7a6 a93a 8638 29bd f115 163d
00000340: 0fbf 3a3e 405a 2a3e 486f be3d 6aa5 b63c
00000350: c43a f8bc e9a0 493c 258b 593d b6be 9cbd
00000360: fae8 9f3c 4541 4ebc 0c59 00bd 7e16 06be
00000370: 5de5 1c3e d4b4 df3d f76d b73c 6507 c9bd
00000380: deee a9bd db46 5f3d 1102 f03b b509 08be
00000390: 5127 6ebe d127 c33a 6700 ff3b f474 603d
000003a0: 050d 073e a3c7 77bc 8647 903d 9d19 debc
000003b0: 945c a1bd a0ab 07be cb21 b83d b5fb 57bc
000003c0: ddae c13d f069 843d 7430 33bd 9292 6dbd
000003d0: f29b cf3d 3de7 a5bc 02e7 b5bd 0c11 05bd
000003e0: 6d56 3b3e 9067 00be 1dd1 2bbe 58f1 f5bd
000003f0: bb78 88bd 4b1c 1d3d 27ea cd3d 042c 86bc

policy_net.2.bias f4 [128]
0.012180734 0.01342692 -0.011746963 0.0022746464 0.0047787335 -0.041887216 -0.010408892 -0.030367395
-0.003586576 -0.02496584 0.0070648086 -0.004411615 -0.030479847 0.028744843 -0.024773313 0.006791059
-0.01368878 0.064253375 0.023826558 0.0047027157 -0.06924614 0.014887389 -0.031948548 -0.03240607
0.046195157 0.030190127 -0.021039817 -0.013543896 0.005641315 -0.01121746 0.013056091 -0.028213108
0.054736156 0.027663345 -0.02127456 0.0031185308 0.058045276 0.01729927 -0.02231302 0.0045573274
-0.012806214 0.034333505 -0.011814778 -0.06037627 0.020828325 0.012139719 -0.030701213 0.042027064
-0.013285567 -0.025347508 -0.01287601 0.07545893 0.02968248 -0.02905904 -0.035648264 0.002113211
-0.07216028 -0.04404684 0.0058110976 -0.03795482 -0.04784609 -0.010284673 0.04134248 -0.0038932308
0.022864284 0.008640234 0.020335363 -0.03298626 0.05033586 -0.06536994 0.0004635262 0.034117993
0.020498727 0.11156773 -0.036116853 -0.0066816723 -0.021198964 -0.012660992 0.023093024 0.009057314
-0.019644657 0.001153841 0.02106114 -0.032155156 -0.08323939 -0.042124983 -0.037717495 -0.007671255
-0.015684318 0.061772592 -0.06312397 -0.028220903 0.0113869915 -0.056702547 -0.018384453 0.014026258
0.03245513 0.031221392 -0.05219881 -0.03763904 -5.2299215e-06 -0.016261589 -0.022759987 -0.122679435
-0.02133791 -0.025749069 0.053510554 0.08636232 -0.04468919 0.04184562 -0.016610444 -0.033477668
-0.03934309 -0.048365597 -0.01379692 -0.043317355 0.025783498 0.00086203613 -0.020186825 0.004579574
0.021775533 0.013381662 -0.02189371 0.047579933 0.017274436 0.026142588 -0.0046830475 -0.0024626385
00000000: b491 473c 96fc 5b3c 5576 40bc 3c12 153b
00000010: ec96 9c3b ee91 2bbd 0f8a 2abc 0bc5 f8bc
00000020: c30c 6bbb 2985 ccbc e97f e73b 4f8f 90bb
00000030: dfb0 f9bc 4e7a eb3c 67f1 cabc 8887 de3b
00000040: e846 60bc 4697 833d ea2f c33c 3d19 9a3b
00000050: ecd0 8dbd 3cea 733c 7bdc 02bd 3abc 04bd
00000060: 2237 3d3d 4951 f73c b25b acbc 38e7 5dbc
00000070: c8da b83b 70c9 37bc 37e9 553c 2d1f e7bc
00000080: 0533 603d 3d9e e23c fc47 aebc 4460 4c3b
00000090: e2c0 6d3d 33b7 8d3c cbc9 b6bc a255 953b
000000a0: 28d1 51bc 4aa1 0c3d c592 41bc 1c4d 77bd
000000b0: 2aa0 aa3c ace5 463c 1c81 fbbc 9224 2c3d
000000c0: b5ab 59bc 94a5 cfbc e6f5 52bc 368a 9a3d
000000d0: ac28 f33c 390d eebc ea03 12bd cc7d 0a3b
000000e0: c5c8 93bd 766a 34bd 056b be3b 8376 1bbd
000000f0: 43fa 43bd 0c81 28bc bb56 293d 9325 7fbb
00000100: e14d bb3c c58f 0d3c 5996 a63c 9a1c 07bd
00000110: fa2c 4e3d ade0 85bd 6f05 f339 4fbf 0b3d
00000120: f2ec a73c 9f7d e43d 44ef 13bd eef1 dabb
00000130: 73a9 adbc 0d70 4fbc 952d bd3c 2165 143c
00000140: d5ed a0bc 7b3c 973a 6988 ac3c 20b5 03bd
00000150: 6a79 aabd 3f8b 2cbd a97d 1abd 275f fbbb
00000160: 667c 80bc 4205 7d3d 2447 81bd 862f e7bc
00000170: 8190 3a3c ee40 68bd fe9a 96bc 64ce 653c
00000180: acef 043d 01c4 ff3c 6bce 55bd 652b 1abd
00000190: af7c afb6 0637 85bc 2773 babc 5b3f fbbd
000001a0: d7cc aebc b6ef d2bc e22d 5b3d bade b03d
000001b0: 030c 37bd 5066 2b3d a012 88bc e11f 09bd
000001c0: 3826 21bd 011b 46bd 7a0c 62bc 8a6d 31bd
000001d0: ea37 d33c 44fa 613a d75e a5bc 4010 963b
000001e0: 9a62 b23c c23e 5b3c 705a b3bc 2de3 423d
000001f0: 1e83 8d3c fb28 d63c 4074 99bb 3864 21bb

action_net.weight f4 [5, 128]
-0.0368063 -0.06510812 -0.053547874 0.008833918 -0.060699444 -0.19707085 -0.04024177 0.05242762
-0.0146279 0.005652805 0.010409831 -0.042238474 -0.037685532 -0.016156483 -0.16537632 -0.045802362
0.075229555 -0.028588798 -0.034453306 0.10947186 -0.10907335 -0.060633846 -0.06664979 -0.12303733
0.11245023 -0.13049595 -0.07025291 -0.16402355 -0.101195246 0.09381814 0.093242936 0.010748588
0.11544579 0.053317614 -0.06436812 -0.081524715 -0.009584188 -0.09307002 -0.10632724 -0.005599531
-0.046048358 0.08415512 -0.056939304 -0.03548311 0.06504625 -0.008465043 -0.08155861 0.0018154982
-0.05494472 -0.0977889 0.054581597 -0.022024674 -0.0011163945 -0.1519063 -0.12030822 -0.06655997
-0.16172506 0.16087951 0.06613796 0.026218034 -0.06747807 -0.025871752 0.0783661 0.022763677
0.109736085 0.044412863 -0.02402865 -0.11254766 0.11735798 -0.05097243 -0.05395724 -0.09717206
0.03653417 -0.11669319 -0.13196263 -0.03345072 -0.059227582 0.017765742 0.016075617 0.055662833
-0.03716956 0.0042879055 0.06050435 -0.08247537 0.07056637 -0.068899885 -0.09768787 -0.10004676
-0.018174715 -0.13232897 -0.13245681 -0.1643398 -0.05493816 -0.11870486 -0.11910992 -0.06858581
0.056359496 0.032268565 -0.02993215 -0.11916319 0.07809989 -0.009206478 -0.08903505 0.14138924
-0.03544688 -0.15633382 0.25476646 -0.13009636 -0.0059884996 0.10941373 -0.006474206 -0.10627241
-0.12851183 0.08745323 0.051745098 -0.13103151 0.09837011 0.05294625 0.0050598397 -0.02851154
0.06669473 0.068330295 0.022444313 0.019401224 0.11343894 -0.049870122 -0.17975648 -0.027816568
-0.002230094 -0.26358154 -0.0024097234 0.037560057 -0.06489252 -0.0005019891 -0.09647706 -0.31203568
0.0436619 -0.10798724 0.019870976 -0.21243499 0.08382869 -0.3191994 0.0046310388 0.34352756
0.029451108 0.020880865 -0.12179377 0.067851864 -0.07321467 -0.09876957 -0.062576115 -0.043121107
-0.051404916 -0.0661853 0.065787755 -0.063133076 -0.0023685542 0.042082496 0.054306716 0.05068912
-0.07029619 0.15945046 -0.357744 -0.076755725 -0.2011768 0.0475352 0.10944012 0.08088744
-0.07635349 -0.051103406 -0.045975696 0.4130562 0.004526558 0.05004112 0.098540716 -0.21223867
-0.099867314 -0.012319062 -0.0007202863 -0.12154494 -0.04308601 0.03771521 -0.0160908 0.03425894
0.05720429 0.17935877 0.09978263 0.26103374 -0.180952 0.025701508 0.072770454 -0.0086426195
0.008477719 -0.017497811 0.0018823023 0.008881272 -0.029298142 -0.027187066 -0.047879238 -0.08642377
-0.11583339 0.11756688 -0.043846373 -0.20531553 -0.09806096 0.016867839 0.08493938 0.09971178
0.28172368 0.014767262 -0.015785826 -0.021522079 -0.19229326 0.1349858 -0.007146668 0.022596562
-0.042427063 0.3530646 0.039471824 -0.14175418 -0.056353975 -0.025797194 -0.10527805 -0.01880017
0.08479105 0.10866547 -0.23611924 -0.03468669 -0.013514535 0.073750846 -0.0577953 -0.14248031
-0.1628404 -0.04071064 -0.04329443 -0.08818607 -0.15533079 0.006640781 0.017973134 0.0592042
-0.0054546623 -0.028889442 -0.13205211 -0.007664001 0.053385217 0.20976573 0.01806705 -0.07141325
-0.052977063 -0.088327184 0.004993115 0.1864426 0.09531175 0.036225412 -0.09572443 -0.027638238
00000000: 34c2 16bd 6857 85bd 0455 5bbd 23bc 103c
00000010: fb9f 78bd f1cc 49be 8ed4 24bd 58be 563d
00000020: dca9 6fbc 2a3b b93b ff8d 2a3c 4002 2dbd
00000030: 255c 1abd 9a5a 84bc 6958 29be 429b 3bbd
00000040: f411 9a3d 0e33 eabc e91e 0dbd c832 e03d
00000050: d961 dfbd 325b 78bd af7f 88bd fffa fbbd
00000060: 4e4c e63d bba0 05be c2e0 8fbd caf5 27be
00000070: 743f cfbd ba23 c03d 27f6 be3d d81a 303c
00000080: d86e ec3d 9263 5a3d 6fd3 83bd 6ef6 a6bd
00000090: 0007 1dbc 7f9b bebd 19c2 d9bd 457c b7bb
000000a0: 349d 3cbd 8559 ac3d 3039 69bd bd56 11bd
000000b0: f836 853d f7b0 0abc 3308 a7bd 03f6 ed3a
000000c0: b70d 61bd 8c45 c8bd f490 5f3d 176d b4bc
000000d0: fc53 92ba 538d 1bbe 2864 f6bd 9850 88bd
000000e0: 419b 25be 99bd 243e 5773 873d 34c7 d63c
000000f0: f131 8abd fff0 d3bc 687e a03d e47a ba3c
00000100: 50bd e03d 43ea 353d bbd7 c4bc 637f e6bd
00000110: 6159 f03d 77c8 50bd 4402 5dbd 2502 c7bd
00000120: dba4 153d d7fc eebd 3621 07be 9f03 09bd
00000130: 9f98 72bd 7689 913c 03b1 833c b6fe 633d
00000140: 1c3f 18bd 8f81 8c3b 69d3 773d d9e8 a8bd
00000150: 1a85 903d 621b 8dbd 9410 c8bd 51e5 ccbd
00000160: 24e3 94bc 3f81 07be c2a2 07be b148 28be
00000170: d606 61bd 891b f3bd e7ef f3bd b876 8cbd
00000180: 37d9 663d 0b2c 043d 4534 f5bc d50b f4bd
00000190: d6f2 9f3d c4d6 16bc 0258 b6bd 57c8 103e
000001a0: bf30 11bd f915 20be c070 823e fb37 05be
000001b0: 2d3b c4bb 4e14 e03d 9425 d4bb 59a5 d9bd
000001c0: 9b98 03be ae1a b33d abf2 533d 202d 06be
000001d0: 4576 c93d 2bde 583d 03cd a53b 0891 e9bc
000001e0: 3f97 883d c1f0 8b3d 23dd b73c 51ef 9e3c
000001f0: ad52 e83d 9d44 4cbd 1512 38be 92df e3bc
00000200: c526 12bb 29f4 86be 73ec 1dbb 93d8 193d
00000210: 5fe6 84bd eb97 03ba c495 c5bd 24c3 9fbe
00000220: d2d6 323d 6a28 ddbd 75c8 a23c 8f88 59be
00000230: 60ae ab3d 1b6e a3be f8bf 973b d8e2 af3e
00000240: 7343 f13c 590e ab3c 036f f9bd ebf5 8a3d
00000250: 93f1 95bd b347 cabd e827 80bd c29f 30bd
00000260: f68d 52bd 298c 87bd bbbb 863d ea4b 81bd
00000270: bf39 1bbb b25e 2c3d b870 5e3d 659f 4f3d
00000280: 73f7 8fbd fb46 233e 392a b7be 1b32 9dbd
00000290: 4b01 4ebe 45b4 423d 2422 e03d 50a8 a53d
000002a0: 385f 9cbd ce51 51bd 0351 3cbd 1a7c d33e
000002b0: 8553 943b ebf7 4c3d b7cf c93d 1855 59be
000002c0: 3c87 ccbd e4d5 49bc 98d1 3cba 8eec f8bd
000002d0: f57a 30bd 447b 1a3d dad0 83bc 1a53 0c3d
000002e0: 0c4f 6a3d d3a9 373e d65a cc3d 37a6 853e
000002f0: 7b4b 39be f88b d23c ad08 953d c699 0dbc
00000300: 21e6 0a3c 9257 8fbc 96b7 f63a c182 113c
00000310: a802 f0bc 69b7 debc 051d 44bd f2fe b0bd
00000320: 0e3a edbd e8c6 f03d 4198 33bd 3c3e 52be
00000330: 2fd4 c8bd 6c2e 8a3c b3f4 ad3d b135 cc3d
00000340: 163e 903e 63f2 713c 4751 81bc 124f b0bc
00000350: 86e8 44be b839 0a3e 992e eabb 6d1c b93c
00000360: 00c8 2dbd e2c4 b43e 35ad 213d 0228 11be
00000370: 6dd3 66bd a354 d3bc 059c d7bd d002 9abc
00000380: eea6 ad3d 008c de3d 3ec9 71be a113 0ebd
00000390: 116c 5dbc af0a 973d c4ba 6cbd 5ce6 11be
000003a0: a2bf 26be 33c0 26bd 8055 31bd e69a b4bd
000003b0: 090f 1fbe e99a d93b 653c 933c 1a80 723d
000003c0: 06bd b2bb 8da9 ecbc ab38 07be 4d22 fbbb
000003d0: 75aa 5a3d d4cc 563e 5a01 943c 1c41 92bd
000003e0: 7afe 58bd e2e4 b4bd 499d a33b cfea 3e3e
000003f0: cf32 c33d 1961 143d 2c0b c4bd 9669 e2bc

action_net.bias f4 [5]
0.10779112 -0.038905624 -0.06229454 0.028846579 -0.029689543
00000000: 97c1 dc3d 815b 1fbd 8f28 7fbd a94f ec3c
00000010: 7c37 f3bc
